pth/model.pth (torch, 828437 bytes, 102 tensors)

conv.weight f4 [8, 3, 3, 3]
000000 a5 98 83 bf 3f 67 0a c0 5b 6e 1c c0 48 94 c1 bf
       -1.0280958 -2.1625516 -2.4442356 -1.5123377
000010 4d 54 78 3f ef 58 07 3d 92 42 a6 3f d9 e7 79 3f
       0.9700363 0.033043798 1.2989066 0.97619396
000020 df 82 70 3f 98 03 b4 3f c5 06 06 40 be f3 ca bd
       0.93949693 1.4063597 2.0941632 -0.099097714
000030 14 62 63 bf 55 e8 41 40 07 e2 5a 3f c9 7e c9 3d
       -0.8882153 3.0298054 0.8550114 0.098386355
000040 78 a5 03 3f 6a f7 de be bd 4b 84 3f bb 13 8b 3f
       0.5142436 -0.43548137 1.0335613 1.0865396
000050 1a 5e 5c 3f c1 45 d0 bf 66 e3 61 3e 65 af d2 be
       0.8608109 -1.6271287 0.22059402 -0.4114944
000060 a8 07 5a bf ce 78 ba bf 39 08 c5 bf 0f 0f 81 3e
       -0.8516793 -1.4568117 -1.5393134 0.252068
000070 32 d8 dd 3e 91 ab ec 3e 11 27 ae 3f a7 7f 3d 40
       0.43329006 0.46224645 1.3605672 2.9609163
000080 52 77 9a 3f e5 94 10 bf e4 c8 d2 3e a9 a2 3a 3f
       1.2067664 -0.56477195 0.41168892 0.7290445
000090 ad 5c f9 bf 1f 40 bd bf 49 6f a9 bf a7 2b bb bf
       -1.9481407 -1.4785193 -1.3237087 -1.4622697
0000a0 66 4f 4c 3f 04 6a 9e bf 5f e9 fa bf 8d a8 68 bf
       0.7980865 -1.2376103 -1.9602469 -0.9088219
0000b0 a3 a4 a4 bf d0 2e 17 3f 10 56 58 3f 44 54 f0 be
       -1.2862743 0.59055805 0.8450632 -0.4693929
0000c0 88 b0 ba 3f 11 4f 79 40 9c 18 32 3f 7b 53 bc be
       1.4585123 3.8954508 0.695688 -0.3678244
0000d0 87 83 90 3f de 4a 91 be 06 6e d0 3f 02 5d aa 3d
       1.1290139 -0.28377432 1.6283576 0.08318521
0000e0 60 9c d7 be a3 5f 08 40 98 87 ef be 56 5a a5 bf
       -0.42111492 2.1308372 -0.46783137 -1.2918193
0000f0 6b f8 3e 3e a5 7a 74 bf d6 f6 9a be ca c8 bc 3f
       0.18649451 -0.9549964 -0.30266446 1.4748776
000100 67 4c 8a bf e4 bc a9 bf 34 d6 1a 40 64 8f 8d bf
       -1.0804566 -1.326077 2.419324 -1.1059384
000110 0a 55 b3 bf ee 0d 39 3f e3 be 08 bf de 4f de 3c
       -1.4010327 0.7228688 -0.5341627 0.027137693
000120 75 2d b8 3f 9d 60 34 bf ea 74 bb bf 92 b1 1e 40
       1.4388872 -0.7045992 -1.4645054 2.479588
000130 d0 71 23 bf 4b 7d f8 bf 1e 09 9f 3f c0 b9 2f be
       -0.6384554 -1.9413236 1.2424657 -0.17160702
000140 1f 6b 99 be 3d 1e c7 bf 25 d9 30 c0 89 6a 00 c0
       -0.2996454 -1.5556103 -2.7632535 -2.0065024
000150 cc 41 be 3d 23 c3 93 3f 97 d1 15 be 0a 6a f1 3f
       0.092898935 1.1543926 -0.14630733 1.8860486
000160 59 c0 19 40 ca f2 cc 3f 84 e1 9a bf 44 79 13 c0
       2.402365 1.6011593 -1.2100072 -2.3042765
000170 f7 a8 b2 bf 57 49 f0 bd dd 47 2e 3f 33 dd 24 be
       -1.3957814 -0.117327385 0.68078405 -0.16100006
000180 48 19 a4 3f 18 a6 d2 3f e7 97 45 3f 43 a4 8e be
       1.2820215 1.6456938 0.7718491 -0.27859697
000190 c2 e6 be bf 5f a2 b6 bb e6 53 1b 3d d3 96 1d 3f
       -1.4914172 -0.0055735554 0.03792181 0.61558264
0001a0 84 b1 aa 3e 93 73 d2 3e 49 56 ab 3f 61 26 e9 3e
       0.3333856 0.411038 1.3385707 0.45537093
0001b0 24 95 28 be cc e8 3a be 7d 9b 9f be d1 a4 a3 bf
       -0.16463143 -0.18252867 -0.31173316 -1.2784673
0001c0 aa c2 52 bf 3f 3c e7 bf be 06 e0 bf 6b f9 ff bf
       -0.82328284 -1.8065261 -1.7502058 -1.9997991
0001d0 b9 d8 72 bf 36 83 b8 bb b1 ec 1d 3f 14 c8 ea bd
       -0.9486194 -0.005630876 0.6168929 -0.11463943
0001e0 fa 7b f6 3e 6f 91 cf 3f de 84 8b be 76 e9 f8 3c
       0.48141462 1.6216258 -0.27249807 0.03038476
0001f0 18 c6 89 3e f3 b8 a9 bd ce 62 21 bf 3e 0e 91 3e
       0.26908946 -0.082872294 -0.6304139 0.28331178
000200 92 9d aa bf 5f 79 cb 3f 98 71 5f 40 7f c8 b9 3e
       -1.3329337 1.5896415 3.4913082 0.3628578
000210 59 ce c7 3f a3 c1 12 40 31 67 63 3f 59 6e 4f bf
       1.5609847 2.2930686 0.8882933 -0.8102775
000220 38 c1 41 3d cb 2e e1 3f c7 21 d0 bf cb 8c d1 3b
       0.04730341 1.7592405 -1.6260308 0.0063949577
000230 84 7f fa 3f b6 38 17 bf 02 4a 79 be e8 44 8f be
       1.9570165 -0.5907091 -0.24344638 -0.2798226
000240 ca df d4 bf 10 f6 94 bf f2 db a9 3f e8 68 13 c0
       -1.6630795 -1.1637592 1.3270247 -2.303278
000250 8b cb b9 bd f3 de 1a 40 14 4a dc be b9 88 17 3e
       -0.09072026 2.4198577 -0.43025267 0.1479825
000260 f0 2c 15 3f 72 ce c5 bf da 25 16 bf 31 44 cd 3f
       0.58271694 -1.5453627 -0.58651507 1.6036435
000270 39 3e 1b c0 24 6b a8 3d 77 20 28 40 66 42 10 bf
       -2.4256728 0.082235605 2.6269815 -0.56351316
000280 3f 82 ac 3e 44 b5 1e 3f 54 2a 25 3e ff 85 1f be
       0.3369312 0.6199534 0.16129428 -0.15578459
000290 2d 6e a8 3f 71 8b b0 bf aa 0a 78 c0 21 0a 77 bf
       1.3158623 -1.3792554 -3.875651 -0.9649983
0002a0 1a c4 89 be 20 bd 18 c0 52 d9 1f bf 44 03 8b 3f
       -0.26907426 -2.3865433 -0.6244098 1.0860372
0002b0 05 f9 be 3f a9 e5 14 40 f6 2d 99 bd 5d 11 be bf
       1.4919745 2.3265173 -0.074794695 -1.4849049
0002c0 ae 84 85 3f e8 26 7c be b0 d2 b4 bf 14 f7 5d 3e
       1.0431116 -0.24624217 -1.4126797 0.21676284
0002d0 ae c7 b3 3e 98 b3 81 3f 56 84 b6 3f 85 aa 13 3f
       0.3511328 1.0132933 1.4259136 0.5768207
0002e0 9a eb d2 bc 93 17 99 3f 50 f5 24 bf d1 a7 12 bf
       -0.02574711 1.1960319 -0.6443682 -0.5728732
0002f0 3f 17 10 3f 30 32 9f be 16 68 21 40 ed 0d 7a 3e
       0.5628547 -0.31092978 2.521978 0.24419375
000300 e3 90 9b 3f 6b 37 18 c0 95 ce 54 3f 2a ab eb bb
       1.2153591 -2.3783824 0.8312772 -0.007192035
000310 76 27 20 be 9a 55 6e 3e 56 c8 b7 bd 33 ad 2d 3f
       -0.15640053 0.23274842 -0.08973758 0.67842406
000320 a8 0e 81 bf 8b 76 14 3f 8e c3 96 c0 e7 3f 2b bf
       -1.0082598 0.5799338 -4.7113714 -0.6689438
000330 89 24 47 3f 9f d7 d1 3d 35 92 f5 3e d3 21 66 bd
       0.77790123 0.102462046 0.4796311 -0.0561846
000340 a6 27 fc 3f 0b 70 ce 3d 91 08 33 3f 0d c8 fb bf
       1.96996 0.10079964 0.69934946 -1.9670426
000350 2c 9c 07 3f 3d d1 b8 bd 9c 4e b6 3e 59 b1 c9 3c
       0.52972674 -0.09024284 0.3560685 0.024620699

bn.weight f4 [8]
000000 cc cc d3 3f 19 d4 82 3f c9 1f cd 3f 8e e7 fe 3f
       1.6546874 1.0220977 1.6025325 1.9914415
000010 d3 c4 97 3f 85 43 0f 40 ca 18 c4 3f cc ed 29 40
       1.1856941 2.238496 1.5320065 2.655139

bn.bias f4 [8]
000000 a3 1c 6b 40 a1 e3 58 3f 5b 89 02 3e d5 79 e5 3f
       3.6736228 0.84722334 0.1274771 1.7927805
000010 ff fb 11 3f ef bf 33 bd d7 1e 02 3f 52 00 6b 40
       0.5702514 -0.043884214 0.5082831 3.6718946

bn.running_mean f4 [8]
000000 f1 da f1 3e 63 79 bd 3f 8c 89 53 be 52 2c f1 3e
       0.47237352 1.4802669 -0.20657939 0.47104126
000010 10 7b e6 3e 18 2f c7 be 90 5c 50 bf c1 5a 3c be
       0.45015764 -0.38903117 -0.8139124 -0.18393995

bn.running_var f4 [8]
000000 94 65 17 3f 98 3b 29 40 22 0b 9b 40 7e 76 da 40
       0.5913937 2.6442623 4.845109 6.8269644
000010 99 be 1f 40 fc a4 ba 40 63 77 87 40 e4 cb 39 3f
       2.4960082 5.8326397 4.2333236 0.7257674

layer1.0.conv1.weight f4 [8, 8, 3, 3]
000000 96 61 06 bf e6 41 8f be e7 93 ba 3e 89 a1 7a be
       -0.52492654 -0.27979964 0.36440966 -0.24475683
000010 e3 d0 95 3f 1e 87 39 bf 94 b9 a5 3d 07 4e f6 bf
       1.1704372 -0.724718 0.08092037 -1.9242562
000020 e4 06 3b 3f 38 f8 08 3f 21 92 8e 3e b8 db 05 bf
       0.7305739 0.5350375 0.27845863 -0.5228839
000030 02 2b 4b 3f 06 87 d6 3e 4f f0 b6 be 82 2c 43 3f
       0.793625 0.4189989 -0.35730216 0.7623979
000040 dc 14 90 bc 11 b4 49 be 3b 77 65 3f 41 61 30 c0
       -0.017588072 -0.19697596 0.89635056 -2.755936
000050 5f 72 8c 3e 63 93 f2 be 97 ca 4d bf 68 13 f5 3f
       0.27431008 -0.47378072 -0.8038725 1.9146547
000060 2d 6e cc 3f f6 1f 62 3f df 23 b7 3f ce 50 88 3f
       1.5971123 0.8833002 1.4307822 1.064966
000070 03 a5 34 3f 20 25 b9 be da 28 50 bf c0 c1 bf bf
       0.7056429 -0.36161137 -0.81312335 -1.4981003
000080 11 90 17 c0 b1 bf f4 be 18 19 21 c0 b0 97 89 bf
       -2.368168 -0.478025 -2.5171566 -1.0749416
000090 d4 37 55 3f b2 93 a3 3f 26 79 62 3f d4 c5 76 3f
       0.8328831 1.2779448 0.8846611 0.9639561
0000a0 0d 66 40 3f 9a 37 d8 be 8e 30 17 3f a9 c2 b4 bf
       0.7515572 -0.4222992 0.59058464 -1.4121906
0000b0 d4 f1 1e c0 bd 72 80 3f dc 90 8e bf 4b d3 ba bf
       -2.48351 1.0035015 -1.1137958 -1.4595731
0000c0 8e b3 93 be 42 e5 2c be c3 54 21 c0 43 b0 99 bf
       -0.28847927 -0.1688433 -2.5207984 -1.2006916
0000d0 f7 43 24 bf f4 e9 a0 3e 3d 74 dc 3e 24 38 fe be
       -0.64166206 0.31428492 0.43057433 -0.49652207
0000e0 ec c4 6b 3e 56 2d 2f 3f 1f 4b f4 be ba da 7a bf
       0.23024338 0.6842855 -0.47713563 -0.9799
0000f0 80 68 2e bf 06 32 4b 3f 27 31 90 3e 60 bb 16 bf
       -0.68128204 0.79373205 0.281625 -0.5887966
000100 17 73 19 3f 6f 45 f9 3f 2a 8c 9e bf d3 e6 3f c0
       0.5994124 1.9474314 -1.2386525 -2.9984634
000110 99 77 46 c0 9b 48 d1 bf 36 2a 3b 40 c6 d0 e3 3f
       -3.1010497 -1.6350282 2.9244514 1.7798088
000120 6a 7e 8b bf 76 8c 25 3f e8 20 1c 40 73 db f7 bf
       -1.0897954 0.6466745 2.4395084 -1.9363846
000130 ec 1f 9f bf 2f 44 84 3e 35 7f 1f 3e 53 02 ac bd
       -1.2431617 0.2583327 0.1557587 -0.08398881
000140 1b 78 bf 3f 9a 0c 84 3f a8 d9 51 be 78 60 d9 bf
       1.4958528 1.0316346 -0.20493186 -1.6982565
000150 37 6e ac 3f 13 7c 17 3f 91 3f 70 bf f5 42 a0 3e
       1.3471135 0.591737 -0.93846995 0.31301084
000160 f3 53 22 bf dd df 8d bf 30 ef 74 40 9d 95 15 40
       -0.63409346 -1.1083943 3.8270988 2.3372567
000170 50 f8 86 bd 27 47 91 40 43 b3 14 40 c4 b3 db 3e
       -0.065903306 4.5399356 2.3234413 0.42910588
000180 df 47 02 40 f4 bf 26 3f c8 36 8c 3d 23 83 4f 3f
       2.0356367 0.6513665 0.06846386 0.81059474
000190 29 ac f3 bd 84 40 48 bf b4 0e 55 bf 36 49 a1 bd
       -0.11898071 -0.78223443 -0.8322556 -0.07875292
0001a0 6b ab e5 3e 96 f7 12 c0 8f 1c 1d bf 30 0d 90 3f
       0.44857344 -2.2963614 -0.613717 1.1254025
0001b0 0b 07 f1 be 2d bc 89 bf 26 9c df bf 51 a6 87 3f
       -0.47075686 -1.0760552 -1.7469528 1.0597631
0001c0 4b e9 28 3f 74 31 20 be dd 04 5f 3f 1b 82 82 3f
       0.65980977 -0.15643865 0.87116796 1.0195955
0001d0 38 db a1 3d 9c a7 59 bf 11 db 04 c0 0d 09 e6 bf
       0.07903141 -0.85021377 -2.0758708 -1.7971512
0001e0 de a1 f7 3d 0a ef e1 bf 1f 5e 9c c0 ad f9 83 3f
       0.120914206 -1.7651074 -4.8864894 1.031057
0001f0 95 20 eb bf fd 0d 61 c0 69 6c 47 bf a5 98 c7 be
       -1.8369318 -3.5164788 -0.77899796 -0.38983646
000200 9d 0a a8 be 4a d5 9f 3f 2d 96 e5 3e e5 df d1 bf
       -0.32820597 1.2486966 0.44841138 -1.6396452
000210 21 23 af 3f 45 44 4e be 3f be 14 c0 ed 03 1b 3f
       1.3682595 -0.2014323 -2.3241117 0.60552865
000220 91 28 01 3e 2e 2c 4a bf 39 f6 95 3f 28 7b 02 3e
       0.12613131 -0.7897366 1.1715766 0.12742293
000230 e6 54 0a 3f 93 4a be bd 8b cb d8 bd b2 4d 89 bd
       0.54035795 -0.09291568 -0.10585698 -0.06704272
000240 bf fb 27 bf 79 7c 10 bf b1 8d a6 bf 40 0b 08 c0
       -0.6561851 -0.5643993 -1.3011991 -2.1256866
000250 f5 4f fd bf ba 89 2e c0 48 d3 eb 3d 85 57 ec be
       -1.9790026 -2.7271562 0.11514908 -0.46160522
000260 e4 3f 1e c0 c7 18 2c 40 ef de 12 40 8b f5 67 3f
       -2.4726496 2.6890123 2.2948568 0.90609044
000270 2f c6 eb 3f 3b 88 33 40 0d f9 bd 3f 72 71 b3 3e
       1.8419856 2.8051898 1.4841629 0.3504749
000280 01 c9 c4 3f 4f 4b 55 3f b2 b4 3d bf d4 b0 1a be
       1.5373842 0.83318037 -0.74103844 -0.15106517
000290 4a 27 a0 3f 81 6a 2e c0 33 ad 45 bf e4 09 a5 3f
       1.251199 -2.7252505 -0.77217406 1.2893643
0002a0 a1 4e 67 c0 ce 46 9d bf e6 ef 71 3e 5a 2f ba 3e
       -3.6141741 -1.2287233 0.2362667 0.3636425
0002b0 9d 8a 99 3f 80 7c 74 3f f0 30 4a 3f 3d b1 b5 3f
       1.1995426 0.9550247 0.7898092 1.4194714
0002c0 78 b1 bf 3f d4 b3 18 3e 4a 47 88 be 95 08 f5 be
       1.4976034 0.14912349 -0.2661689 -0.4785811
0002d0 fa d9 39 3d 75 51 e2 3e a2 ca 2c bf e3 cd 1c 3e
       0.045373894 0.44202772 -0.67496693 0.15312915
0002e0 bf 5b 0c 3f e8 55 44 3e 16 83 bd 3e f7 55 42 3f
       0.54827493 0.19173396 0.37014073 0.7591242
0002f0 c7 55 0b 3f ec 40 89 bf bb 88 fe bf 8b 08 bb 3d
       0.5442776 -1.0722938 -1.9885477 0.09132489
000300 93 b7 a7 3f 09 7a 0f bf 05 f0 ca bc cb e3 11 3f
       1.3102897 -0.56045586 -0.024772653 0.5698821
000310 1f 0d 96 bf 49 d5 44 bf 7a c2 cb 3f a8 3b 09 3f
       -1.1722754 -0.7688795 1.5918725 0.53606653
000320 a2 90 94 3f 69 86 17 3e 61 c2 88 bf bf 4f 8d bf
       1.1606638 0.14797367 -1.068432 -1.1039962
000330 2f 18 76 bf 81 05 c6 bf cc 79 2c be ba 5e d9 3f
       -0.9613065 -1.547043 -0.16843337 1.6982033
000340 d9 79 96 3f 0a aa 2c 3f 13 8f 49 40 a7 eb 01 40
       1.1755935 0.6744696 3.1493576 2.030008
000350 ee e5 a6 3f 46 70 34 be 11 9f 18 be b2 5d 76 3f
       1.3038919 -0.17620954 -0.14904429 0.9623672
000360 b4 b6 eb bf f8 93 33 40 a6 b8 91 bf f8 0d ba bf
       -1.8415132 2.8059063 -1.1384475 -1.4535513
000370 b8 b7 52 3f f9 5a 87 3e f8 28 18 3f ea e7 3e bf
       0.8231158 0.26436594 0.59437513 -0.7457262
000380 94 4c d5 be 33 ce f1 bf 00 ab f4 3f d1 9c 1e bf
       -0.41659987 -1.8891052 1.9114685 -0.6195803
000390 0d df a5 be 39 d1 7c 3f d2 87 65 bf 88 db fa bc
       -0.32396737 0.9875675 -0.8966037 -0.030622259
0003a0 76 71 29 3f f6 9e ba be 5b 9f 14 be 35 d7 1a c0
       0.6618875 -0.36449403 -0.14513914 -2.4193852
0003b0 03 2d 29 3e de 4d 2a bf f2 4a b5 be 0e 29 75 3e
       0.16521077 -0.66525066 -0.3540874 0.23941442
0003c0 67 0f 90 be d5 dd e3 3e 9c d3 0b bf d1 8a cb be
       -0.2813675 0.44505182 -0.54619765 -0.39754346
0003d0 d0 3a f4 3e 77 e7 8d be 39 3a 04 be f3 1a 97 be
       0.4770112 -0.27715656 -0.12912835 -0.29512748
0003e0 f1 33 76 be aa ca 2c 3e ef 0c 20 3e 0a ca 7a be
       -0.24043252 0.16874185 0.15629934 -0.24491134
0003f0 f8 a8 3f c0 98 55 05 40 12 7b 66 3f ff 2c c4 bf
       -2.994688 2.0833492 0.9003154 -1.5326232

layer1.0.bn1.weight f4 [8]
000000 30 bc ee 3f a8 30 bc 3f c0 3c 9b 3f fb 71 76 40
       1.865118 1.4702349 1.2127914 3.8507068
000010 cf 98 05 40 f1 ba ce 3f 54 76 f7 3f a5 12 c0 3f
       2.0874517 1.61508 1.9332986 1.500569

layer1.0.bn1.bias f4 [8]
000000 ce f5 94 3f 7c 35 1b be 08 53 17 bf 43 2c 55 40
       1.1637514 -0.15157121 -0.5911107 3.3308265
000010 ca db 9f be 44 df 94 bf 01 d3 e4 3e b8 48 72 bf
       -0.31222373 -1.1630635 0.44692233 -0.9464221

layer1.0.bn1.running_mean f4 [8]
000000 2e 79 de c1 56 99 f7 be 1f 84 84 41 76 4c 42 c0
       -27.80917 -0.48359174 16.564512 -3.0359168
000010 91 82 29 c2 34 4c f3 c1 5a bf bc c1 b9 99 39 42
       -42.377506 -30.412209 -23.593433 46.40012

layer1.0.bn1.running_var f4 [8]
000000 e2 7d f0 43 45 ea fc 43 68 88 3b 44 3b b2 b1 43
       480.98346 505.83023 750.13135 355.39243
000010 f4 31 6f 44 04 9a b6 43 10 04 2a 44 83 82 18 44
       956.7805 365.20325 680.0635 610.03925

layer1.0.conv2.weight f4 [8, 8, 3, 3]
000000 ab e4 88 3f 8a a5 c1 bd 6c 1d 28 3f 81 de a3 3e
       1.0694784 -0.09455402 0.65669894 0.32005695
000010 cf 32 da 3e ec f3 4a 3f a9 d3 f1 3d 72 10 9b be
       0.4261689 0.79278445 0.11807949 -0.30285984
000020 a7 81 1f bf 0f 8b e8 3e 83 b0 53 bf cb 22 90 bf
       -0.6230721 0.45418593 -0.8269121 -1.1260618
000030 e7 35 f4 3e 1a 83 f1 bf 8b 0b ee bf 1b dc 66 3f
       0.47697374 -1.8868134 -1.8597273 0.90179604
000040 f7 0d ca bf fe 3d e4 bf 28 39 0b 40 5e 4a a5 3f
       -1.5785512 -1.7831419 2.1753635 1.291332
000050 a9 c0 9a 3e 5a ac d1 3f 49 39 27 3f 01 48 33 be
       0.30225113 1.6380723 0.65321785 -0.17507936
000060 42 4d c3 3f 4a 54 9d 3f b9 d9 20 3f a2 c6 0b 3e
       1.5257952 1.2291348 0.6283222 0.13649991
000070 46 97 7c 3e b4 ab 13 3f ba 4b 42 3f 4d 29 a2 bf
       0.24667081 0.57683873 0.758968 -1.2668854
000080 27 21 29 be 14 75 49 3f e4 31 63 3e 61 93 f3 be
       -0.16516553 0.7869427 0.22187 -0.4757338
000090 de e3 e2 bf 0d 95 a8 bf 8f 48 5d bf 10 5a ca 3f
       -1.772579 -1.3170487 -0.8643884 1.5808735
0000a0 0f 57 84 40 35 e3 71 40 c0 9f 88 3f c7 aa a7 40
       4.1356273 3.7794926 1.0673752 5.239597
0000b0 c6 6a bd 40 70 c5 75 3f 18 fe dc 3f d4 fa f0 3e
       5.919284 0.9600439 1.7265043 0.47066367
0000c0 d6 1e 78 3f af f6 39 3f ca a8 54 bc 1c 95 4f 3e
       0.9692205 0.72642034 -0.012979696 0.20271724
0000d0 4b 99 0d c0 ee 12 28 c0 8e 5d 72 3f db 18 a8 3f
       -2.2124813 -2.6261554 0.94674003 1.3132585
0000e0 3b c1 f2 3f ca 87 3d 3f 3a 9b 31 bf e0 fc 96 3f
       1.8965219 0.7403532 -0.6937748 1.1795921
0000f0 c5 94 c1 bf f4 30 be bf 1b b0 fe be c0 fc f1 be
       -1.5123526 -1.4858689 -0.49743733 -0.47263145
000100 07 62 5d bf 7a 6d a3 bf d7 52 5f bf 86 5d 81 bf
       -0.864777 -1.2767785 -0.8723578 -1.0106666
000110 f7 ed 07 c0 77 e3 e7 bf c7 69 03 c0 3e cd 5a c0
       -2.1238992 -1.8116292 -2.0533311 -3.418777
000120 c2 d7 ae bf 8b 6f 24 bf 11 5d b8 bc f7 e9 34 bf
       -1.3659594 -0.642327 -0.022505315 -0.706695
000130 7d cc 1e bf a1 7b a6 3f c5 c2 9e bf 59 6f 9c 3f
       -0.62030774 1.3006479 -1.2403189 1.2221481
000140 30 4d 37 40 e4 e7 b1 bf e8 47 ef 3f 2a 48 08 40
       2.8640862 -1.3898892 1.8693819 2.1294045
000150 c8 35 f0 bf 45 ca 75 3f df fe 27 40 b8 57 23 c0
       -1.8766413 0.96011764 2.624931 -2.552229
000160 ba 78 a6 bf f9 d9 71 3f 8f 40 c1 bf b4 f2 a3 bf
       -1.3005593 0.94473225 -1.5097827 -1.2808442
000170 58 5a ba bf d9 8f d2 be d0 87 18 bf 48 5a c4 bd
       -1.4558821 -0.41125372 -0.59582233 -0.09587532
000180 cc 1a 3c 3f d4 4d 03 3f 14 cb 5d 3f fc e0 9f 3f
       0.7347839 0.5129063 0.86638 1.2490535
000190 7e 8a ec bd 9d 30 86 bf 60 2e c3 3f c4 72 a0 bf
       -0.11549853 -1.0483586 1.5248528 -1.2535024
0001a0 6b ed 82 bf 68 d8 3c 40 43 b8 08 3f f3 17 fb bf
       -1.0228704 2.9507084 0.5340616 -1.9616684
0001b0 60 53 3e be 4e 6f bb be d3 fb 61 bf 9d f3 4f bf
       -0.18586493 -0.36608356 -0.8827488 -0.812311
0001c0 3b 93 c1 3e 2e 9a d2 3e e8 c7 d7 bf 77 70 b1 3d
       0.3780764 0.41133255 -1.6857882 0.08664029
0001d0 b5 4a 49 3f 33 2a f4 bf 41 c4 02 3f 62 c9 a2 3f
       0.7862962 -1.9075378 0.5108071 1.2717707
0001e0 da 78 25 bf ec 49 d8 3f 94 07 ab 3f 34 44 19 c0
       -0.6463753 1.6897559 1.3361688 -2.3947878
0001f0 7b 27 de bf db c2 de be 72 04 18 3f 61 53 d8 be
       -1.7355798 -0.43508038 0.59381783 -0.42251113
000200 98 fe 5e bf 27 e1 02 be 70 b1 97 3f d8 fc 9f 3f
       -0.8710723 -0.12781201 1.1851025 1.2499037
000210 ba 93 8b 3f 9e 0f cd 3f dd 85 de 3f 4c f4 db bf
       1.0904458 1.6020391 1.7384602 -1.7183928
000220 5f eb fd bf 46 e2 6d bf d2 d4 0e be dc d7 41 3e
       -1.9837455 -0.9292339 -0.13948372 0.1893
000230 e4 ae 66 3f f5 0f 86 3f 79 4d bd 3f df 1d f7 3f
       0.9011061 1.047362 1.4789268 1.9305991
000240 2f a9 00 3f 11 c9 a0 3e f1 2a 4d bf b4 22 9c 3f
       0.50258154 0.31403401 -0.8014365 1.219809
000250 db 98 c8 be 4c 14 c5 be bd 77 3b 3f f1 8e b4 be
       -0.3917912 -0.38492048 0.7322958 -0.35265306
000260 9f 23 00 bf bd ba 00 3f d3 86 9a bf 1e c0 5f bf
       -0.50054353 0.5028494 -1.2072395 -0.8740252
000270 59 35 e9 3d aa 33 21 c0 86 f1 90 bf da 9a ad 3d
       0.113871284 -2.5187783 -1.1323707 0.08476801
000280 cd 01 c0 bf 08 19 6c bf 7f 2f dd 3e 7f 2c b8 3d
       -1.500055 -0.92225695 0.432003 0.08992862
000290 31 eb 91 bd fe 7e 0a 3f a9 40 b7 ba b5 45 31 be
       -0.07124937 0.54100025 -0.0013981062 -0.17311747
0002a0 65 c0 7e 3c 8d c2 14 bf 4c cf 5c bf 76 78 a3 be
       0.0155488 -0.5810936 -0.8625381 -0.31927842
0002b0 3e 84 64 bf 07 90 22 3e 6c de 3b 40 c3 07 53 c0
       -0.89264286 0.15875255 2.9354506 -3.2973487
0002c0 69 87 96 3f 85 98 3c 40 db 75 94 c0 38 7b f1 3f
       1.1760074 2.946809 -4.6393867 1.8865728
0002d0 6d 60 62 3f 5f 23 29 bf 9f 9b 36 3f a8 27 5e 3f
       0.88428384 -0.66069597 0.7133121 0.8677926
0002e0 bb 0a 29 bf 5d 00 e7 bd 2f 49 6f 3f 52 28 95 bf
       -0.66032 -0.11279366 0.93471044 -1.165293
0002f0 f4 48 f0 3e 96 b5 91 bf 56 65 7c 3f b8 16 78 bf
       0.4693066 -1.1383541 0.98592126 -0.96909666
000300 dd 7b 9a bf 66 c2 c7 3f 0e 9a 0d c0 2f c8 a2 bf
       -1.206905 1.5606201 -2.2125278 -1.2717341
000310 9f 00 14 40 fe 58 3d bf e9 f6 bc 3f 08 99 43 bf
       2.312538 -0.73963916 1.4762851 -0.7640538
000320 e4 3a 2b bf a7 14 13 40 dc 81 c8 be 69 fc 66 bf
       -0.66886735 2.2981355 -0.39161575 -0.902289
000330 20 c5 d7 3f 43 72 9a bf a7 66 c2 be a7 62 fa 3d
       1.6857033 -1.206612 -0.37968943 0.12225848
000340 47 49 96 3e b6 74 7e be a1 27 39 bf a7 7e 9b bd
       0.2935278 -0.24849209 -0.72326094 -0.075925164
000350 35 7e df bc 11 79 5b bf 7c 11 3f 3e 5e 8d 10 3f
       -0.02728186 -0.8573161 0.18659014 0.5646571
000360 f0 e9 1c c0 ea dd 84 c0 f2 29 b4 bf 19 f1 0c 40
       -2.4517784 -4.152089 -1.4075301 2.2022154
000370 b7 36 59 3f da bd 31 3f 09 66 ea be a3 76 bf 3e
       0.84849113 0.69430315 -0.45780972 0.373952
000380 cd d0 22 3f d5 06 ff 3f 6a 50 f1 3e d1 bc e1 bf
       0.63599855 1.992396 0.47131664 -1.7635747
000390 52 1a 6a be 27 3d c1 3e c5 c0 26 bf fd 2d 5e bf
       -0.22861603 0.37741968 -0.6513789 -0.8678892
0003a0 f6 e8 f1 be 8c 96 25 3f 01 ef ad bf 87 ff 61 bf
       -0.47248048 0.6468284 -1.3588563 -0.8828053
0003b0 3f 32 5e bf d5 5a 22 bf c7 2d 5b bf b9 12 e2 be
       -0.8679542 -0.6341985 -0.85616726 -0.4415491
0003c0 02 9b 45 3e 1a 1b 15 3e 88 3b 9f 3e de 30 b1 3e
       0.19297412 0.1456112 0.31100106 0.34607595
0003d0 50 ef 84 bf 59 6f 4a 3f 04 62 f9 be 5e d6 4f c0
       -1.0385532 0.79076153 -0.48707592 -3.247459
0003e0 21 fe 9f 3f f8 f1 ff be 48 08 53 40 19 1a c8 bf
       1.2499429 -0.49989295 3.2973804 -1.5632964
0003f0 78 9a fa be f2 53 80 be b4 63 4d bf 95 dc e9 3e
       -0.48945975 -0.25064045 -0.8023026 0.45676103

layer1.0.bn2.weight f4 [8]
000000 2a 30 a6 3f 50 99 b3 3f aa 39 6b 40 40 f8 cc 3f
       1.2983449 1.4031162 3.6753945 1.601326
000010 af 8a 1d 3f 79 9d 02 40 0a 22 5d 3f ff 21 3d 40
       0.6153974 2.0408614 0.86380064 2.9552

layer1.0.bn2.bias f4 [8]
000000 af ac 34 3f 29 b6 2e 3f ac 8c 32 bf a7 47 08 3f
       0.70575994 0.68246704 -0.697459 0.5323433
000010 86 73 27 be f6 36 31 bf 21 fe 15 bf 8b bc 03 3f
       -0.16352662 -0.6922449 -0.58590895 0.5145957

layer1.0.bn2.running_mean f4 [8]
000000 d6 f0 4c 41 85 a6 00 41 0b bb 17 c0 fc 0b 46 c1
       12.808798 8.040654 -2.3707912 -12.377926
000010 6d 23 8f c1 b6 1e a4 c1 d0 86 ef c0 96 06 b9 3f
       -17.892298 -20.514996 -7.4852066 1.4455135

layer1.0.bn2.running_var f4 [8]
000000 ea 43 6b 43 69 0a a0 43 3c 6a 79 44 ea cc b8 43
       235.26529 320.08133 997.6599 369.6009
000010 f8 ef 4a 43 63 59 7c 43 05 b0 06 43 34 84 76 43
       202.93738 252.34917 134.68758 246.51642

layer1.1.conv1.weight f4 [8, 8, 3, 3]
000000 b5 53 20 bf 60 79 d0 bf 82 b6 c0 bf 88 35 27 3f
       -0.62627727 -1.6287041 -1.5055697 0.6531606
000010 dc 14 a3 bf 59 81 84 bf c8 8f 4c 3f 7c d8 4b 3f
       -1.2740741 -1.0351974 0.7990689 0.79627204
000020 bb df 3a be 79 8d 5b 3f 58 78 d2 bf 97 d1 1e c0
       -0.18249409 0.85762745 -1.6442976 -2.4815423
000030 0c 21 66 3f 64 13 eb bf 08 e1 3d c0 a3 1e 98 3e
       0.89894176 -1.8365293 -2.9668598 0.29710874
000040 b3 fc 5c bf 38 89 c0 bf 14 01 4e bf d9 89 92 3f
       -0.8632309 -1.5041876 -0.80470395 1.1448318
000050 a6 d5 43 bf 59 ab b8 bf b6 c4 be 3f 7a 94 68 3f
       -0.76497877 -1.4427291 1.4903781 0.9085156
000060 42 4f 01 c0 19 6c 9b 3e b3 0c 12 3f 66 c6 b8 3f
       -2.0204625 0.3035591 0.5705063 1.4435546
000070 fc 11 05 40 e1 f4 81 3f b0 95 d2 3f 60 89 4b 40
       2.0792227 1.0152856 1.6451931 3.1802597
000080 7c 1b 00 40 7e b1 1f c0 4a 3d b0 3f e1 ac 19 3e
       2.0016775 -2.4952083 1.3768704 0.15007354
000090 5d e7 88 bf ed 3b 05 c0 84 4d 29 c0 51 e7 80 be
       -1.0695606 -2.0817826 -2.6453562 -0.2517648
0000a0 3d c7 a2 bf 66 1c 2c c0 6a 5d 81 3e c4 e7 e9 be
       -1.2717053 -2.6892333 0.25266582 -0.45684636
0000b0 35 c1 12 c0 dc e9 a2 bd 91 eb 6a bf 62 af 1b 3f
       -2.2930424 -0.079547614 -0.91765696 0.6081449
0000c0 bb 8d 69 3e b2 cf 1e bf 24 3d f0 be 91 17 2d bf
       0.22807972 -0.6203567 -0.46921647 -0.67614084
0000d0 5a 38 79 be 3a b2 a7 bf bf 8a e3 be fc 40 a6 3d
       -0.24337903 -1.3101265 -0.44441792 0.081178635
0000e0 0e 22 b0 3f 2a e4 8d bf 25 34 f7 be 40 5a 80 3f
       1.3760393 -1.1085255 -0.4828197 1.0027542
0000f0 14 ac 8d bf da 51 39 bf bf e6 13 3f db 5e 1a 3f
       -1.1068139 -0.7239052 0.57773966 0.6030099
000100 fd d6 e7 3f 00 89 4d 3f ba c3 04 3e 22 d3 c5 3f
       1.8112484 0.8028717 0.12965289 1.5455058
000110 2f f7 11 40 a4 ed 53 3e 68 74 a2 bf 93 ba 1e 3f
       2.280712 0.20696121 -1.2691774 0.6200344
000120 b6 b1 64 bf 1f e7 d0 be a7 2a a0 3e 23 b1 54 3e
       -0.89333665 -0.4080133 0.3128254 0.20770697
000130 ce 09 52 3f 25 78 80 bf 52 41 5f be 7b e6 ef 3e
       0.8204621 -1.0036665 -0.21802261 0.4685553
000140 5e 03 81 3f 2a 4b 89 be 53 b5 9b bf b5 25 bf bf
       1.0079153 -0.26815158 -1.2164711 -1.4933382
000150 46 d4 43 bf f1 49 18 bf 69 52 3b bf 84 57 e2 bd
       -0.7649578 -0.59487826 -0.7317262 -0.110518485
000160 b1 22 3f bf 1d a9 dc be b1 33 cb 3b 4a ea ca 3e
       -0.7466231 -0.43097773 0.0062012305 0.39631873
000170 54 61 60 bf 40 8e d4 3e ab 8a 27 3e 16 80 5e 3f
       -0.8764851 0.41514778 0.16361491 0.86914194
000180 70 b2 b5 be 06 11 53 be 03 c5 aa 3e b7 87 5c 3e
       -0.354877 -0.20611963 0.33353433 0.21536146
000190 aa 91 ae 3e 34 75 89 3e 77 5b d1 3e f6 f4 d4 3f
       0.34095508 0.2684723 0.40890095 1.6637256
0001a0 7b 10 1b 3f bd b4 ee bf 47 fd 1f c0 cb 52 3b bf
       0.6057202 -1.8648907 -2.4998338 -0.7317321
0001b0 37 a2 c1 3f 65 53 a0 3f 1f a3 d0 3f 0e 5b e1 3e
       1.5127629 1.252545 1.6299781 0.44014782
0001c0 1a 96 04 3f a1 d5 0f 3f 49 8d 8b bf 20 aa c3 bf
       0.51791537 0.56185347 -1.0902492 -1.5286293
0001d0 b2 7e b7 bf 2a 0f 96 bf 4f c3 ba 3a b0 ca 8d be
       -1.4335539 -1.1723378 0.001424888 -0.276937
0001e0 ba c7 07 3f 68 e6 07 bf 64 16 64 bf b2 f3 13 be
       0.53039134 -0.5308595 -0.89096665 -0.14448431
0001f0 85 45 ea bd 8f db 2e bd 86 bd eb bf 47 5c 2b bf
       -0.11439041 -0.042689856 -1.8417213 -0.6693768
000200 ff 87 3d be 40 ea 1a bf b7 52 09 bf 72 6f d7 3e
       -0.1850891 -0.6051369 -0.5364184 0.42077214
000210 81 69 9e 3e 09 1e 81 3f ed 60 52 3f d1 a0 aa bf
       0.30939868 1.0087291 0.82179147 -1.3330327
000220 6c 0a b4 3f 68 d4 09 bf 6a b2 bd bf 09 d4 c8 c0
       1.406568 -0.5383973 -1.4820073 -6.275883
000230 3a cb e5 bf 8c f0 c6 3f 5d 06 6b 40 df 90 46 3f
       -1.7952645 1.5542159 3.6722634 0.77564806
000240 58 e2 e3 bd ad 3d 9a bd ef c1 46 bf 77 ab b3 bf
       -0.11127156 -0.07531295 -0.7763967 -1.4036702
000250 f3 7d 47 bf 78 fc 5d bf d7 57 24 c0 86 ae 17 c0
       -0.7792656 -0.8671336 -2.5678613 -2.370027
000260 58 78 94 bf 3c 1e 6f 3f 3a a7 4e 3f 15 dc 05 3f
       -1.1599226 0.9340551 0.8072392 0.52288944
000270 c0 ef 2e 3f a9 b5 08 be 31 eb ba be f6 78 87 3f
       0.6833458 -0.13350548 -0.36507562 1.0583789
000280 59 55 2e 3f a6 ac a5 3e e4 a3 64 c0 10 9e 8d c0
       0.6809898 0.32358283 -3.572503 -4.4255447
000290 eb f7 a7 c0 d2 d3 58 c0 04 95 b7 c0 f8 a7 98 c0
       -5.2490134 -3.3879285 -5.7369404 -4.770504
0002a0 fa 67 3a 3f 49 f1 ba bf 54 54 ea 3e 81 41 90 bd
       0.72814906 -1.4604884 0.45767462 -0.07043744
0002b0 4a 0e 13 3f 9e da 50 bd c7 23 59 be dc ba d1 bd
       0.5744368 -0.05098974 -0.21205054 -0.10240719
0002c0 64 3b 96 3c 3a 01 7f 3e 99 a4 cc bc 11 98 e0 be
       0.018338867 0.24902812 -0.02498083 -0.43866017
0002d0 9e 60 88 3f 8b c1 95 3f e3 af 26 3f cb 71 2c 3f
       1.0654485 1.169969 0.6511213 0.67361134
0002e0 29 35 4e 3f ca ae 15 3e 6a f5 c7 bf f1 ad 99 bf
       0.80549866 0.14617458 -1.562177 -1.2006208
0002f0 a5 02 be bf f7 84 73 c0 cd fa 2b be d8 a7 e7 bf
       -1.4844557 -3.8049905 -0.16794892 -1.8098097
000300 aa 13 92 c0 f0 9c 50 c0 2e 7a 18 c0 aa 0f 75 bf
       -4.5649004 -3.2595787 -2.3824573 -0.95727026
000310 c4 2a 02 bf ee 5e 72 3e 95 a3 19 3f 7e 35 84 3e
       -0.50846505 0.23669025 0.6001523 0.2582206
000320 86 61 de be c8 3f 96 3e 49 05 4a 3e 50 fa 2a bf
       -0.4343378 0.29345536 0.19728579 -0.66788197
000330 5d 89 f0 3e 6d 7b 1e 3f 9d d5 25 3d 01 c9 d9 3d
       0.469798 0.6190708 0.04048692 0.106340416
000340 0e eb 1c bf 54 a1 ba 3f 6b b4 22 bf 04 88 7c bf
       -0.61296165 1.4580483 -0.63556546 -0.98645043
000350 bb 74 c0 3e c5 eb 08 bf 6a b2 9d 3d 61 44 68 3f
       0.37589058 -0.53484756 0.077000454 0.9072934
000360 c1 84 3b bf b2 75 0e bf c7 5c d2 3f 60 87 86 be
       -0.7324944 -0.5564834 1.6434563 -0.26275158
000370 86 ca 10 c0 65 1a 2c 3f a5 3e 81 3f d5 64 78 3f
       -2.262361 0.67227775 1.0097243 0.9702886
000380 fb 66 98 bf 9c bc b1 3e 6b 4a 02 c0 96 e9 2b bf
       -1.1906427 0.3471421 -2.035792 -0.671533
000390 fd d0 b2 be 0d 6a 91 be 85 0b 59 bf ad 48 c0 bf
       -0.3492507 -0.28401223 -0.847832 -1.5022179
0003a0 31 6d 05 3f ec 38 7e bf 14 b8 9e 3f 48 03 7b bf
       0.5211974 -0.99305606 1.2399926 -0.9805188
0003b0 09 2c 0e c0 64 01 10 bf 70 3b 3d 3f 82 c8 a9 be
       -2.2214377 -0.5625212 0.7391882 -0.33160788
0003c0 6b 4a 13 c0 55 56 63 3f 7f 07 04 bf 37 f2 2d bf
       -2.301417 0.8880361 -0.5157394 -0.67947716
0003d0 32 9d 01 c0 39 ae 4e 3e 9e f3 bb 3f b3 25 fb bf
       -2.0252194 0.20183648 1.4683721 -1.962088
0003e0 fc 47 a7 bf c6 33 f1 3e a3 eb ad 3f 4a 5c 37 c0
       -1.3068843 0.47109812 1.3587536 -2.8650079
0003f0 81 fc 95 3f 2e 08 90 be 75 d1 75 3f 6c 88 56 3f
       1.1717683 -0.2813124 0.9602273 0.83801913

layer1.1.bn1.weight f4 [8]
000000 35 d6 d2 3f 18 98 30 40 61 78 f4 3f 9c 17 30 40
       1.6471621 2.759283 1.9099237 2.751441
000010 de 0b 10 40 41 11 2a 40 66 dc fb 3f 0e 97 d0 3f
       2.2507243 2.657303 1.9676635 1.6296098

layer1.1.bn1.bias f4 [8]
000000 0f 94 1c bf 1f 19 85 be 06 00 71 bf 49 aa 92 be
       -0.6116342 -0.25995728 -0.9414066 -0.28645542
000010 57 6c 9f 3e 69 d6 1f bf 98 55 34 bf 50 fc e3 3d
       0.31137344 -0.6243654 -0.70443106 0.11132109

layer1.1.bn1.running_mean f4 [8]
000000 fd 07 40 41 79 20 01 c2 e9 fd 9b c2 9d cc 4f c2
       12.00195 -32.28171 -77.99592 -51.949818
000010 bd 0b b5 c1 22 46 4f c2 5f 33 a1 c2 76 f8 25 c2
       -22.630732 -51.81849 -80.600334 -41.492638

layer1.1.bn1.running_var f4 [8]
000000 95 ff 87 44 f5 b0 20 45 eb 6f bd 44 d4 ce 85 44
       1087.9869 2571.0598 1515.4974 1070.4634
000010 ac 9a d7 44 29 0c 9c 44 04 da c3 44 5b f0 d8 44
       1724.8335 1248.38 1566.813 1735.5111

layer1.1.conv2.weight f4 [8, 8, 3, 3]
000000 ef 46 80 bf 98 fd 3c be cb fb 63 40 d7 78 9e bf
       -1.0021647 -0.18456113 3.5622432 -1.2380627
000010 bb 2b f0 bf 34 9c 8a 3f 5a b1 b3 bf 3b ec c5 bf
       -1.8763345 1.082892 -1.4038498 -1.5462717
000020 7a 5b 1f bd 0d c2 9e 3f b8 cc a5 3f 3e 74 65 3e
       -0.0389056 1.240297 1.29531 0.22407624
000030 73 ff 96 3f 83 59 9a 3f 03 83 49 3e a8 28 7b 3f
       1.1796707 1.2058567 0.19678883 0.9810891
000040 0e f9 85 3f ef 1d 75 bf 56 0c 3f bf 74 3f 79 3d
       1.046663 -0.957488 -0.746282 0.06085153
000050 39 e5 fe 3c 46 fc c3 3e 2f 1b 4d 40 76 ef 30 40
       0.031115161 0.38278407 3.2047842 2.7646155
000060 b1 f5 8f 3f ea 8b 8d 40 f9 41 a0 40 0a a5 73 3f
       1.1246854 4.4233294 5.0080533 0.95173705
000070 c9 f4 86 3d fe 42 cc 3f 43 95 1f bf d2 51 b1 3f
       0.06589658 1.5957944 -0.6233713 1.3853095
000080 31 ed 37 3e dc c7 f9 3d 7c 52 70 bf 58 1b c0 bd
       0.17961575 0.12196323 -0.9387586 -0.093802154
000090 25 60 b0 bf d2 a3 0b 3f 84 9d 81 3f 12 a6 04 3d
       -1.3779341 0.54546845 1.0126195 0.03238494
0000a0 98 78 64 3f b2 7e 85 3f 86 48 0b bf c9 7e 4f 3f
       0.8924651 1.0429289 -0.54407537 0.81052834
0000b0 71 88 f5 be 12 e4 9c 3f 46 1a 00 40 72 8a 69 3f
       -0.4795566 1.2257102 2.0016036 0.91226876
0000c0 ad 06 33 3e 37 10 f7 be e2 55 70 3e bf dd 0a c0
       0.17483015 -0.48254558 0.23470262 -2.1697843
0000d0 42 ab c7 bf 72 5f a7 be 55 fb e7 3f 95 ec 4f 3e
       -1.5599139 -0.32690006 1.8123575 0.20305093
0000e0 4c 06 57 bf 3b e6 cd 3f 87 06 e0 bf f3 ec 01 c0
       -0.83993983 1.6085886 -1.7501992 -2.0300872
0000f0 74 a2 0d 40 07 6f 43 be a0 16 9a bf 17 fb 18 c0
       2.2130404 -0.19085322 -1.2038155 -2.3903253
000100 73 e6 15 3f 9d bc 81 3f ae 40 d8 bf eb 30 fc 3f
       0.5855476 1.0135685 -1.6894739 1.9702429
000110 16 0b 13 40 9b 09 14 c0 18 0f cc 3f 40 07 b6 3f
       2.2975516 -2.3130863 1.5942106 1.4220963
000120 78 21 59 3f 87 ac 7e 3f de 5f a0 3e f5 a0 64 3e
       0.84816694 0.99482006 0.3132314 0.22327025
000130 5c ec d9 3e f6 65 50 3e 29 e5 f2 3f dc cd ab 3f
       0.4256314 0.20351395 1.8976184 1.3422198
000140 15 05 db bd 8d 3a c1 be 4d 3f 6c bf bf d9 2b c0
       -0.10694329 -0.37739983 -0.9228409 -2.6851652
000150 94 5c 97 3e 8c ba c8 3e 4c 27 fa 3e ed b9 28 bf
       0.2956282 0.39204824 0.48858106 -0.659087
000160 91 87 80 bf 72 af 03 3f 89 e9 9e bd 8a 08 11 3d
       -1.0041372 0.51439583 -0.07759387 0.035408534
000170 da 44 42 3f f1 a6 a8 bf d9 46 e7 3e 50 21 f9 3e
       0.7588631 -1.3175946 0.4517124 0.48658228
000180 c1 22 d5 bf f0 65 01 3f 96 3e c5 3f 45 b3 cf be
       -1.6651231 0.5054617 1.5409725 -0.4056646
000190 40 cc 3b 40 1f e9 b3 be a5 b6 8a 3e 82 a6 e0 be
       2.9343414 -0.35138795 0.27092472 -0.43877035
0001a0 b0 09 19 40 fc 79 20 40 7b fd 16 3b c5 de cb bd
       2.3912163 2.5074453 0.002303927 -0.09954599
0001b0 0b d1 3b 3e fc a2 0e 40 91 0e c7 3f 04 18 00 c0
       0.18341462 2.2286978 1.555132 -2.0014658
0001c0 64 2a 28 40 d8 e0 3f 40 bf 15 60 bf 63 10 c9 bf
       2.6275873 2.9980984 -0.8753318 -1.5708126
0001d0 3a 63 76 3d 75 51 ae be ec 26 47 bf 8f c1 61 bf
       0.060153224 -0.34046522 -0.77793765 -0.8818597
0001e0 e3 97 0d c0 27 33 9f bf 91 dd 63 bf 17 d3 0c c0
       -2.2123954 -1.2437485 -0.8900996 -2.200384
0001f0 10 7f 4b c0 67 78 34 c0 5a 10 41 bf fb 1c e8 bf
       -3.1796303 -2.8198488 -0.75415576 -1.8133844
000200 64 d7 1a bf 0f 85 3a be 9d 03 2a bf 6e c3 cc bf
       -0.6048491 -0.1821482 -0.66411763 -1.599714
000210 a4 84 c5 3f 8f af a2 3f 72 58 e4 bf a6 83 31 be
       1.5431104 1.2709826 -1.7839491 -0.17335376
000220 ba c8 a5 3e 35 6d 7d 3e 92 fa 60 bf d0 d2 19 bf
       0.32379705 0.2474869 -0.8788234 -0.600873
000230 ee 92 a6 bd 4c f1 e4 3e 72 06 8f be 3f d9 2e 3f
       -0.08133493 0.44715345 -0.27934605 0.6830024
000240 e3 04 84 be 9b bf 1a 3e 72 76 91 3f 7e c5 02 3f
       -0.25784978 0.15112154 1.1364272 0.510826
000250 19 50 5a 3f b7 23 35 40 7d a7 be 3e 20 fe 70 bf
       0.8527847 2.8303049 0.37237158 -0.94137764
000260 f8 38 89 3f 03 e3 4e 3f ae 2c 4e 3f 60 de e0 bb
       1.072051 0.8081514 0.80536926 -0.0068624467
000270 e5 a3 89 3f 73 37 29 3f 10 f6 3a 3f ae eb e8 3b
       1.0753142 0.66100234 0.7303171 0.0071081733
000280 89 58 0f bd 49 5b 00 3f bc 57 bc 3f 8a ab 22 3f
       -0.034996543 0.5013929 1.4714274 0.63543
000290 8b 2d 98 3f 0f e8 eb be 27 dd 26 c0 03 f7 1e c0
       1.1888899 -0.46075484 -2.607248 -2.4838264
0002a0 4a 7c a2 3f d4 5e 9b bf f4 ff c3 bf 3a 9d 84 3f
       1.269418 -1.2138314 -1.5312486 1.0360482
0002b0 e6 4e 02 3e 86 0f bd 3f f6 e8 92 3f 42 1b 9a bd
       0.1272541 1.4770362 1.1477344 -0.0752473
0002c0 fb a9 9e 3f 44 1e 10 3f 1c 90 47 bf 4a b6 dd 3d
       1.2395624 0.5629618 -0.7795427 0.108257845
0002d0 8c b3 1a be 06 9a 2a bf 28 78 ed bf fc 35 d1 be
       -0.15107554 -0.6664127 -1.8552294 -0.408615
0002e0 0c c0 d9 bf b1 b5 e0 bf b6 6d eb be 66 3d 03 c0
       -1.7011733 -1.7555448 -0.4598214 -2.0506225
0002f0 ad a2 e9 bf af 6f 46 3f 06 34 ce be 6d e0 ce bf
       -1.825277 0.77514166 -0.40274066 -1.6162239
000300 b4 be 94 3f 82 85 07 3f 8e fb 86 bf eb 0b 26 3f
       1.1620698 0.5293809 -1.0545518 0.64861935
000310 9e d8 2d 3e c9 d9 8c 3f c9 26 cd bf 07 29 e1 bf
       0.16977164 1.1003963 -1.6027461 -1.7590646
000320 25 be 0a bf 97 5a d5 bf 56 0b ae bf f1 85 a3 be
       -0.5419639 -1.6668271 -1.359721 -0.31938127
000330 e8 9b 1e c0 95 95 fa bf 90 92 c1 bf 5b f9 b8 3e
       -2.4782658 -1.9576899 -1.5122852 0.36127743
000340 74 3d 11 c0 13 6a 08 c0 52 cc a0 bf 6a 1c 98 c0
       -2.2693758 -2.1314743 -1.2562354 -4.7534685
000350 a6 77 a6 c0 43 c9 b1 bd 59 6d 0b c0 52 04 38 c0
       -5.2021055 -0.08680966 -2.178549 -2.8752637
000360 8d b8 63 be 92 59 4c bf fa 23 e5 bf ff 8c d0 bf
       -0.2223837 -0.79824173 -1.7901604 -1.6293029
000370 3c ef d7 bf 9d ac 97 bf 60 ce ad bf d7 db 82 bf
       -1.6869884 -1.1849552 -1.3578606 -1.022334
000380 c1 c8 82 3d 15 b0 0e 3e 2f 3d a2 3f 2c fa c3 3e
       0.06385947 0.13934357 1.2674922 0.38276803
000390 52 19 90 3f 44 06 62 40 60 d4 e4 bf 2f 31 9e 3f
       1.1257727 3.5316324 -1.7877312 1.235876
0003a0 70 b4 d0 bc 3c 89 3a bf 0c 03 12 3d b7 ac c7 3f
       -0.025476664 -0.72865653 0.035647437 1.5599583
0003b0 9b 85 95 3f a2 7f 1d 3e 96 0e a2 3f d2 95 90 3f
       1.1681398 0.1538072 1.2660701 1.1295722
0003c0 c0 c0 94 bf ad 18 a3 be f7 64 fd bc b7 bc 96 3f
       -1.1621323 -0.31854764 -0.030931933 1.1776341
0003d0 4b 75 a4 3f 2f ca 4a bf 45 58 94 3f 5c 8c 31 bf
       1.2848295 -0.7921476 1.1589438 -0.69354796
0003e0 b9 0d d0 3f 29 89 ff be c1 80 b9 3e 76 c7 f6 3f
       1.6254188 -0.49909332 0.36231044 1.9279621
0003f0 61 7b 5f bf 23 7f 24 bf 0f 26 d6 be 9f 59 00 c0
       -0.87297636 -0.64256495 -0.4182591 -2.00547

layer1.1.bn2.weight f4 [8]
000000 75 14 59 3f bd 17 c0 3f 41 9d 92 3f 9f ab 71 3f
       0.8479684 1.5007244 1.145424 0.944025
000010 6c d8 18 40 85 66 d9 3f 2e 20 6d 3f 35 6e be 3f
       2.3882093 1.6984411 0.9262723 1.4877383

layer1.1.bn2.bias f4 [8]
000000 1d d7 29 be f0 a5 a9 be d1 01 05 40 ee 88 c1 bf
       -0.16585965 -0.33134413 2.0782359 -1.5119913
000010 5d ee b8 3f 20 d0 6d 3f 4b 61 cc 3f a9 43 2a c0
       1.4447743 0.928957 1.5967191 -2.6603796

layer1.1.bn2.running_mean f4 [8]
000000 f9 aa 55 41 a5 c6 61 bf 1d d9 97 c1 26 9d 39 41
       13.354241 -0.8819373 -18.981012 11.600866
000010 5c 7a 93 c1 59 52 15 c0 65 30 50 41 a4 f2 53 41
       -18.434746 -2.333151 13.011815 13.246738

layer1.1.bn2.running_var f4 [8]
000000 73 01 4f 43 79 00 90 43 99 22 43 43 59 2e 52 43
       207.00566 288.0037 195.13515 210.18105
000010 91 ec e1 43 bd 42 7c 43 bb 03 72 43 c2 6c 50 43
       451.84818 252.2607 242.01457 208.42484

layer2.0.conv1.weight f4 [16, 8, 3, 3]
000000 3e 2c 24 c0 7e ba 21 3f bd f2 54 40 84 f6 21 c0
       -2.5652003 0.6317519 3.3273156 -2.5306711
000010 c8 6a 3c c0 04 f1 ed 3f c8 c5 7b 3f da dc 13 c0
       -2.9440174 1.8589177 0.98348665 -2.3103547
000020 37 d0 a8 bf 97 2a 0c c0 ab 13 43 bf 4c 8b a3 3f
       -1.3188542 -2.1900995 -0.76201886 1.2776885
000030 2c 71 0a 3f f9 a2 eb bf fa 8b 0b bf c0 69 07 40
       0.54078937 -1.840911 -0.5451046 2.1158295
000040 dc 05 44 3f f7 2c b0 bf a1 f8 86 bf 81 f0 68 bf
       0.7657144 -1.3763722 -1.0544626 -0.9099198
000050 4b 22 5e be 7b dc 3f be 2f 53 1b bf ce d0 8d bf
       -0.21692769 -0.1873645 -0.60673803 -1.1079347
000060 34 40 c4 3f 08 c2 29 3f e6 2b 67 bd 0c 90 3f be
       1.5332093 0.66311693 -0.05643835 -0.18707293
000070 75 d2 30 c0 7d 7f 5e bf bb cf c2 3f 85 38 2a c0
       -2.7628453 -0.8691328 1.5219644 -2.6596997
000080 35 da 18 c0 ef b8 56 3f 0e 72 de bd 86 f6 1b c0
       -2.3883183 0.83875936 -0.10861598 -2.4369216
000090 07 e9 95 bf 96 24 56 bf ca 70 f1 3f 6a 1d 89 bf
       -1.1711739 -0.83649576 1.8862545 -1.0712101
0000a0 30 1f 5d c0 6c 4a 91 bf 18 95 8a 3f 18 58 40 c0
       -3.4550285 -1.1350837 1.082675 -3.0053768
0000b0 ab 77 af bf 8b 88 1e be 7e 43 54 bf 01 ca 5d be
       -1.3708395 -0.15481775 -0.82915485 -0.2165909
0000c0 6c 97 b3 be 2d 69 49 bf 00 30 88 bd db 88 e2 3f
       -0.35076463 -0.7867611 -0.0664978 1.7698015
0000d0 66 ba db 3d 69 c2 2f 3f 7c 1a b7 3f e8 80 86 3f
       0.10728912 0.6865602 1.4304957 1.0508089
0000e0 fe ec 0b c0 7a c3 0a be c7 1c dc 3f 7f 3d 38 3f
       -2.1863399 -0.13551131 1.7196282 0.71968836
0000f0 eb 20 9d bf 0e fc 6c 3f c5 76 00 40 e6 ff 45 3f
       -1.2275671 0.92572105 2.007249 0.77343595
000100 34 66 65 3c 7d 9f a2 bf 80 76 a6 3d ce b9 92 3f
       0.014001418 -1.2704922 0.08128071 1.1462953
000110 a9 52 c9 bb f9 9f 9b 3d a1 72 45 be 5c 93 9e 3e
       -0.006143887 0.07598872 -0.19282009 0.309718
000120 76 88 31 be 09 6a ad 3e d6 a0 23 3f cb 5b 92 be
       -0.17337212 0.3386996 0.6391729 -0.28585657
000130 4b 15 bf 3e e2 15 e3 3e 33 eb 24 c0 8e 15 cb bf
       0.37320933 0.44352633 -2.5768554 -1.5865953
000140 a6 ce 83 bf 06 b7 9b bd 94 be 15 3e 1f 58 7b be
       -1.0297439 -0.07603268 0.14623481 -0.24545334
000150 c7 73 28 3f 0f ca a4 3f 1d 25 ff 3e 76 d6 36 c0
       0.6580166 1.2874163 0.49833003 -2.8568397
000160 0f ee 21 c0 2e 4c b6 bf 55 6d 8b 3f 12 f1 af 3e
       -2.530155 -1.4241998 1.089274 0.3436361
000170 73 d7 3a 3e 94 27 c0 3e 99 3e 28 bd 7c 90 e6 be
       0.1824625 0.37530196 -0.041075323 -0.45032108
000180 fb 63 95 bf b8 ad 79 bf a4 3c 83 bf d1 84 ce be
       -1.1671137 -0.975307 -1.0252881 -0.40335706
000190 17 7a 36 3e 81 c0 8f 3d 9c 35 54 c0 4c 58 a9 bf
       0.17820011 0.07019139 -3.315772 -1.3230071
0001a0 e4 fd 7e 3d 76 82 f3 bf 4d b0 24 bd 12 1b 37 3f
       0.062253848 -1.9024189 -0.040207196 0.7152568
0001b0 a7 1a 25 3f d6 a5 16 3d 1e bd 82 3b 52 6b 0a 40
       0.64493793 0.036779247 0.0039898297 2.1628003
0001c0 7f 60 26 40 90 a5 26 40 94 d3 3b c0 1f 98 14 c0
       2.5996397 2.6038551 -2.9347887 -2.3217847
0001d0 ac 72 3e c0 2e f7 c4 3f 49 7f 48 3f 1a 94 ae 3d
       -2.975749 1.5387933 0.7831922 0.08524342
0001e0 f8 a4 97 3f cc 2c a9 3f 05 4b 60 3c 48 57 8b be
       1.184722 1.3216796 0.013689761 -0.27215028
0001f0 47 52 f8 bf 23 d5 7e bf 08 4c 47 c0 17 c5 bd bf
       -1.9400109 -0.9954397 -3.1140156 -1.4825772
000200 8d 13 f2 bf bb 04 57 3f 97 25 e8 3f c2 74 ae 3f
       -1.8912216 0.83991593 1.8136472 1.3629382
000210 b9 9d 59 3f bf 83 8f 3f a9 ff 26 3f 1a 81 23 c0
       0.8500629 1.1212081 0.65233856 -2.5547547
000220 5f 4a ed bf 7a 77 b6 bf 04 27 42 3f 2e bb 75 3f
       -1.8538321 -1.4255211 0.75840783 0.9598874
000230 56 4b bd be a1 f7 5f 3e e2 4b bc 3f d4 6d 5b 3f
       -0.3697154 0.21871807 1.4710658 0.8571446
000240 c3 42 41 c0 29 6d 84 c0 b6 24 4b c0 f7 ab 15 c0
       -3.0196998 -4.138325 -3.1741157 -2.338621
000250 9c 66 e9 bf e2 73 b8 bf 04 17 5c 40 4f c9 95 40
       -1.8234439 -1.4410365 3.4389048 4.680824
000260 f7 9e 68 40 cf 68 ab bc 1d 73 1b 40 dd c8 2d 3f
       3.6347024 -0.020924 2.428901 0.6788462
000270 a6 87 ac 3f 56 6b 20 40 bd 94 8e 3f d8 0d 88 3f
       1.3478897 2.5065513 1.1139141 1.0629225
000280 ed fb d9 3d 45 e6 83 bf 99 89 5e 3e 82 eb a0 3f
       0.10643754 -1.0304648 0.21732177 1.2571871
000290 67 58 61 3f 44 62 90 bf 93 94 9a be e8 c0 13 3f
       0.88025516 -1.1279988 -0.30191478 0.57716227
0002a0 7e fe fa 3d 90 79 4c bf f2 dd 0d be 35 e6 6e 3f
       0.12255572 -0.7987299 -0.13854197 0.9332002
0002b0 74 36 d3 3f 7e 65 15 3f 1f 49 4b 3f a7 60 29 3e
       1.6500993 0.5835799 0.7940845 0.16540776
0002c0 90 a3 7d bf 42 f3 d7 3f 8e 2a f8 3d 68 08 6c bf
       -0.990777 1.6871111 0.12117492 -0.92200327
0002d0 a5 4a dc 3d 98 42 8d 3f 06 ee bb 3f e6 c6 f7 be
       0.10756425 1.1035948 1.4682014 -0.48393935
0002e0 71 fe ae 3f 06 89 c7 3f 05 3e 13 bf 2d 7e 09 be
       1.3671399 1.5588691 -0.5751651 -0.13427038
0002f0 03 fd 11 be 5b dd 38 3f f5 0c 99 3f dd a0 87 3f
       -0.14256673 0.7221276 1.1957079 1.0595967
000300 57 84 17 3f 62 20 33 3f 1e 95 ad be 92 ec 97 bf
       0.5918631 0.6997129 -0.3390283 -1.186907
000310 98 09 81 bf 81 36 b3 bf 3f 0a 7f bf a8 19 36 bf
       -1.0081053 -1.4001008 -0.9962501 -0.711329
000320 28 19 4a bf 40 4b 39 3f 46 68 a6 3f d9 49 cf 3f
       -0.78944635 0.7238045 1.3000572 1.6194412
000330 3f 00 15 3f 14 0e ef 3f e5 56 9f 3f 14 df 30 3f
       0.582035 1.8676171 1.2448393 0.6909039
000340 56 d0 68 3f f2 56 6e 3f 6b 61 6c 3f 8f ce 9f 3f
       0.90942895 0.9310142 0.9233615 1.2484912
000350 8c 41 b2 3e bf b7 c6 bc 1b c1 85 3c 9c 37 6e 3f
       0.34815633 -0.024257539 0.016327431 0.93053603
000360 da 58 bf bd 91 f9 21 c0 d7 ad 12 c0 62 6a d2 bf
       -0.09343119 -2.5308573 -2.2918603 -1.6438715
000370 b3 db 6d c0 53 25 4d c0 05 2d 45 be e4 61 08 bf
       -3.7165344 -3.205403 -0.19255455 -0.5327437
000380 3b a4 ad 3f e9 77 c6 3f e0 dc db 3e c4 d0 c9 bf
       1.3565744 1.5505344 0.42941952 -1.5766835
000390 75 7a 0e 3f 1d 6a f3 bf 4c dd 8e c0 47 b6 d5 bf
       0.55655605 -1.9016758 -4.464514 -1.6696252
0003a0 dc 94 67 c0 28 40 5c c0 af 2a 53 3f 30 e0 fd 3e
       -3.6184607 -3.4414158 0.82487005 0.49585104
0003b0 a8 4d 81 3f 1f 18 4b 3f bc 02 b6 3e d3 bf 47 3f
       1.0101824 0.7933368 0.3554896 0.78027076
0003c0 9d 6a 20 bf 83 5b 32 3e c5 ee e6 bf 96 71 02 3f
       -0.6266268 0.17417721 -1.8041617 0.5095457
0003d0 55 2e 04 c0 6e ed 56 bf 4d 6e 72 3e 16 a9 7c c0
       -2.065328 -0.8395604 0.23674889 -3.9478202
0003e0 de f1 7b bf e0 b3 35 3f c9 d5 bb bd 06 5e 0b 3f
       -0.98415935 0.7097759 -0.09171636 0.54440343
0003f0 c4 3a f7 be 84 58 08 bf 0c 19 a6 bf 17 81 3e 3f
       -0.48287022 -0.53260064 -1.2976394 0.74415725

layer2.0.bn1.weight f4 [16]
000000 51 9a 2d 40 e2 4d 11 40 a4 dd f6 3f dc 5c f3 3f
       2.7125437 2.2703786 1.9286389 1.9012713
000010 74 43 e3 3f 78 ea 8f 3f 3e 54 0c 40 cc 9d f4 3f
       1.775496 1.1243429 2.1926417 1.9110656
000020 4a 76 4f 40 d5 6c 08 40 8a a3 0b 40 52 a9 05 40
       3.2415948 2.1316426 2.1818566 2.0884595
000030 ea 9e d4 3f 90 71 08 40 f2 cc fa 3f ea a4 0e 40
       1.6610997 2.1319313 1.9593794 2.2288156

layer2.0.bn1.bias f4 [16]
000000 f8 80 db be 37 87 d7 be 20 0c 1c bf a8 55 ac be
       -0.42871833 -0.42095348 -0.60956 -0.336591
000010 5a 83 57 bf d7 41 6e 3f 8c d4 ac be 0b 7e d5 3d
       -0.841848 0.93069214 -0.3375591 0.104244314
000020 4a 23 78 bf ff 5e 7f be e3 04 48 bf c8 18 e1 be
       -0.96928847 -0.24938582 -0.78132457 -0.4396422
000030 2d b0 32 3e e2 21 d7 be d8 d5 c8 be c6 79 81 3f
       0.17450018 -0.42018038 -0.3922565 1.0115287

layer2.0.bn1.running_mean f4 [16]
000000 7a 88 5f c2 f9 40 1c c2 dc 72 2e 42 e6 15 a1 c2
       -55.883278 -39.06345 43.612167 -80.54277
000010 dd ed 2f c1 29 5c 27 42 98 5a fd c1 6c a2 ed 41
       -10.995572 41.84 -31.669235 29.704308
000020 3b cf a1 c1 02 32 5a 3e 35 20 5c 41 81 ea 31 42
       -20.226187 0.21308139 13.757863 44.479008
000030 14 45 f4 40 a5 7b 97 c1 d0 45 d3 c2 96 a8 bd c0
       7.6334324 -18.935373 -105.63635 -5.9268293

layer2.0.bn1.running_var f4 [16]
000000 85 16 ef 44 92 b8 f9 44 07 78 58 44 18 df e9 44
       1912.7037 1997.7678 865.8754 1870.9717
000010 4e 19 d5 44 de a8 fe 44 e6 ff cb 44 a4 31 02 45
       1704.7908 2037.2771 1631.9968 2083.1025
000020 e3 54 3a 45 0c 50 7e 44 ae bd 07 45 d7 50 b3 44
       2981.3054 1017.25073 2171.855 1434.5262
000030 e9 28 c1 44 dd dc c7 44 09 66 2a 45 0f f8 11 45
       1545.2784 1598.902 2726.3772 2335.5037
